assets/models/hand_sign_classifier.tflite (tflite, 75436 bytes, 6 tensors)

arith.constant f4 [29, 64]
000000 00 82 07 3e 07 19 0b c0 7e 52 f4 bf 05 cc 8f 3e
       0.13233185 -2.1734025 -1.9087675 0.28085342
000010 fc 62 0d 3f d8 fe 74 3e e3 83 9c be c3 9c 9e 3e
       0.55229163 0.2392534 -0.30569372 0.30978975
000020 26 0d 8f bd bc 86 5f be 62 7e 4a 3d 40 bf e1 3d
       -0.0698493 -0.21828741 0.049436934 0.11022806
000030 6c 96 d9 be 32 5e c0 be be df 55 bf 6a 63 b3 3d
       -0.42497575 -0.37571865 -0.8354453 0.08759196
000040 70 c7 33 3e 25 ec 9b 3e d3 27 83 be c2 8a cc 3d
       0.17556548 0.304536 -0.2561632 0.099874035
000050 f6 50 3c bc 9c 7f cc be a4 a5 ed 3e c2 3d ae bd
       -0.011493912 -0.39941108 0.46415436 -0.08507873
000060 8c 1c 99 bd 29 68 c3 be 2a fb 17 be 9c c4 09 bd
       -0.07476148 -0.38165405 -0.14841905 -0.033634767
000070 ab 24 ec be 9d 4f 81 be 21 ae 91 bf 5b f9 2c 3e
       -0.46121725 -0.25256053 -1.1381265 0.16891997
000080 fb c6 73 bd 56 7f 93 be b6 64 9a 3e 5f c2 31 bf
       -0.059515934 -0.28808087 0.3015496 -0.6943721
000090 df 14 c4 be 09 cf 88 bf 75 1d ff 3c 22 12 16 bf
       -0.38297173 -1.0688182 0.031141976 -0.5862142
0000a0 c1 20 ae 3e ae 83 ab bf c9 c6 ec 3d 28 a4 8d 3e
       0.34009364 -1.339956 0.11561353 0.27664304
0000b0 96 1e 06 be de dd a7 3e de fa 48 bf c1 28 8a bf
       -0.13097605 0.3278646 -0.7850779 -1.0793687
0000c0 b5 b0 df 3e f7 95 a6 3e 1c bf cd 3e 79 71 92 3e
       0.43689504 0.3253629 0.40184867 0.28602198
0000d0 6f 17 43 3e 50 df ac be b0 04 fa bd 91 0c dc be
       0.19051908 -0.33764124 -0.12207925 -0.42978337
0000e0 97 b1 a3 3e 04 3e 03 bd 76 89 a7 bd 95 03 cc be
       0.31971428 -0.032041565 -0.081805155 -0.39846483
0000f0 21 6d 60 be a3 2c f4 be d3 f2 97 be 1f 57 b1 be
       -0.2191663 -0.47690305 -0.29677448 -0.3463678
000100 8f 89 d7 bf 9f f1 a8 3e 20 46 a8 3d 38 d8 83 3e
       -1.6838855 0.32996842 0.082165 0.257509
000110 c0 ca 64 3e 20 f6 09 bf 3a 5c 0a bb ba 58 90 bc
       0.22342968 -0.5389118 -0.00211121 -0.017620433
000120 12 53 e0 be 15 8a 84 3e cd 8b 4a 3c c1 bc 3f 3e
       -0.43813378 0.25886598 0.012362433 0.18724348
000130 68 cc 90 3e be 3b 89 be 34 cd eb bc e8 13 fb be
       0.2828095 -0.26803392 -0.028784372 -0.49038625
000140 1c 48 c7 3d a8 87 94 bf 92 18 fe bd 83 15 a7 3d
       0.09730551 -1.1603899 -0.1240703 0.081584
000150 18 c3 8c be 37 b0 cc be 0d 4d 11 bf 45 36 61 be
       -0.27492595 -0.3997819 -0.56758195 -0.21993358
000160 0c 90 fc 3e ec 51 a8 be 28 30 ab 3e 6f bd d5 3e
       0.4932865 -0.32875 0.33435178 0.4174609
000170 86 24 5f 3e 45 28 e0 bc 44 69 b6 3e db a7 0f bd
       0.21791276 -0.027362952 0.35627186 -0.03507219
000180 89 e2 5f be 51 19 b9 3d b1 6d 24 bf f6 13 d0 be
       -0.2186376 0.09038032 -0.64229876 -0.4064023
000190 02 ff 4d bf 00 62 c9 3e 6d e8 b0 bf 6b 75 35 bf
       -0.80467236 0.3933258 -1.3820931 -0.7088229
0001a0 e5 b3 91 bf bc 43 b2 be da b2 ce be 69 df ac be
       -1.1383024 -0.34817302 -0.40370828 -0.33764198
0001b0 1b 07 95 3e 19 c8 28 bf cd 67 82 3e 58 82 d8 3d
       0.29106984 -0.65930325 0.2546982 0.10571736
0001c0 14 ad 76 bf ec e8 17 bf 46 a1 98 bf bd fc 50 bf
       -0.96357846 -0.59339786 -1.1924217 -0.8163565
0001d0 e9 40 1c 3e 92 43 c2 3e 7b 78 04 3e a3 22 9b be
       0.15259136 0.37942177 0.12936585 -0.30299863
0001e0 08 f5 8d bf 67 2c b8 be 04 5b e9 3d 28 5a 81 3e
       -1.1090403 -0.35971376 0.11394313 0.25264096
0001f0 0c 41 de bf c6 c8 a5 3e d5 15 b8 3c ae 40 93 3e
       -1.7363601 0.3237974 0.022471348 0.28760284
000200 ef a9 79 bf 2d 53 a2 bd 95 2f 87 3e 30 91 92 3e
       -0.97524923 -0.07926021 0.2640349 0.28626394
000210 77 d9 68 bd 27 fd b5 bc 27 2a 73 bf a4 5e 8e be
       -0.056848016 -0.022215439 -0.94986194 -0.2780658
000220 49 bf 86 bf 87 2c 1f 3e 64 ed 89 3e 17 de 70 3e
       -1.0527126 0.1554433 0.26938927 0.2352222
000230 2c d5 b6 3d 42 20 7d be b5 d2 0d 3f 1d 14 6c 3e
       0.08927378 -0.24719337 0.5539964 0.23054548
000240 8f 78 0a bf 63 23 0f be cf 37 c4 3e 5e 56 29 be
       -0.5409021 -0.13978343 0.3832383 -0.16536853
000250 20 c1 00 3e 5e 24 8c 3e 47 2a 14 3e bc 72 8f 3e
       0.12573671 0.27371496 0.14469253 0.28017223
000260 7c f4 66 be 24 a4 b4 be e3 dc 58 bf d4 10 a1 bd
       -0.22554201 -0.3528148 -0.84712046 -0.07864538
000270 b2 78 2d 3e bd 16 ac be ee d0 52 be e7 a1 5a 3e
       0.16940573 -0.33611098 -0.20587513 0.21350823
000280 28 d7 c1 3c f9 71 16 bc 9e 00 7c 3e e1 90 c7 be
       0.023662165 -0.009182447 0.2460961 -0.3897772
000290 c0 3a 83 3e 31 5e bd 3e cc fb 0d bf 52 56 d8 3e
       0.2563076 0.36985925 -0.55462337 0.42253357
0002a0 cf 1b 92 be a2 7c 3e bd b4 19 25 bf 9c ef 0a 3e
       -0.2853684 -0.046505578 -0.64492345 0.13567966
0002b0 8f c8 91 3e d5 e5 4b bc 76 3a 8b bd fb c4 8e bf
       0.28473327 -0.012444933 -0.0679826 -1.1153864
0002c0 73 c4 c7 3b 8c b1 f3 bd 0b 60 67 bf 30 b5 9d bf
       0.0060964166 -0.11899099 -0.90380925 -1.2320919
0002d0 47 d4 22 bf 6b bb 1d 3e ca fb f7 3c 6b b1 55 3e
       -0.6360516 0.15403526 0.03027143 0.20868461
0002e0 d0 c0 e6 be fc 65 68 3d 47 69 5a bf ee ca fe be
       -0.4506898 0.056737885 -0.8531689 -0.49764198
0002f0 59 d4 72 bd 03 40 2c 3e 8a 51 82 3e 73 a1 7e be
       -0.05928454 0.16821294 0.25452834 -0.24866275
000300 51 21 3c bd cd 09 9f bc e2 72 38 be 87 49 fb be
       -0.04593021 -0.019413853 -0.18012574 -0.49079534
000310 cd fd ad be f1 f4 b1 bd 1b 03 07 3e b4 2f 0f bf
       -0.33982697 -0.08689297 0.13184778 -0.55932164
000320 b1 2f 0d 3e 62 3f 94 3e a2 89 30 be 66 85 8d be
       0.13787724 0.28954607 -0.17240003 -0.27640837
000330 93 b7 db 3d 03 e7 31 bf aa d6 0d 3f be c5 ae 3e
       0.107283734 -0.6949312 0.55405676 0.3413524
000340 b8 64 f2 be 8f 10 01 be 9c 0a 1b 3e 04 4e d3 3e
       -0.47342467 -0.12603973 0.15140766 0.4127046
000350 e2 76 f8 3e 94 13 09 3e 4a 77 db bd 6d 1b 5f 3e
       0.485282 0.13386375 -0.10716112 0.21787806
000360 b9 88 49 3d 4d 0e 00 bf 7b c4 18 3d b4 e8 52 3e
       0.049202655 -0.5002182 0.037296753 0.20596582
000370 3b b2 b4 3e 94 53 a3 3e 8f ae 01 be 1d c2 a5 bf
       0.3529223 0.31899703 -0.12664245 -1.2949864
000380 40 d4 1e 3e 32 10 03 3f 27 40 6a be 60 51 97 bd
       0.15510654 0.5119659 -0.22876035 -0.07388568
000390 28 08 1f bf 90 c3 50 3e c1 4b b5 be 76 0d 6c bd
       -0.6212182 0.20387101 -0.35409358 -0.057630025
0003a0 60 0d 5f bf a3 fd e0 3d 52 c9 4d bf 9d a2 5e bc
       -0.87129784 0.10985877 -0.80385315 -0.013588575
0003b0 79 10 95 be 86 07 d7 3e 50 23 0c bf f7 2b 81 bd
       -0.2911413 0.41997927 -0.5474138 -0.06307214
0003c0 f1 24 71 be 41 89 c4 3e 40 61 ad 3e 0f 5b 96 3e
       -0.23549248 0.38385966 0.33863258 0.29366347
0003d0 2b 9b 84 be 21 1b 44 3e c9 94 dd bd 82 c1 e4 3d
       -0.25899634 0.19150974 -0.10819394 0.11169721
0003e0 82 7b c2 3d 9d f0 7a bf d5 5b ad be 08 c3 1f 3e
       0.094962135 -0.98023397 -0.33859125 0.15601742
0003f0 91 27 2b bf ce fc 26 be 50 fc 85 3d 70 fe ea bd
       -0.6685725 -0.16307375 0.065422654 -0.11474311

arith.constant1 f4 [64, 128]
000000 eb 6e 0d be f9 91 14 3e d2 2a 37 be 97 0a 69 bf
       -0.13811843 0.14508809 -0.17887428 -0.91031784
000010 f5 32 77 3d 46 2d 1d 3d c4 2c af 3d 7c 58 8e be
       0.06035133 0.038373254 0.0855346 -0.27801883
000020 0b fa 14 3f b1 66 37 3d 84 96 f7 bd 91 b3 d1 3e
       0.58194035 0.04477567 -0.120892555 0.4095731
000030 f9 94 a8 3e 0c bd 18 3c 57 df d9 3e 71 b2 9a 3e
       0.32926157 0.009322416 0.42553207 0.30214265
000040 4f a6 ec 3e 54 4f 19 3d e3 3d eb 3c f9 92 23 bf
       0.46220633 0.03742917 0.028716033 -0.6389614
000050 86 e2 ef 3e 6e 5c 6c 3e 21 3b ce 3e 34 51 10 bf
       0.4685251 0.23082134 0.40279487 -0.56373906
000060 d6 a5 14 3f de 18 85 be 88 f8 ed bd 03 f3 70 3c
       0.58065546 -0.25995535 -0.11619669 0.014706376
000070 23 58 94 be 01 c4 b0 3e 72 c5 3d 3e 4c b7 0a bf
       -0.28973493 0.3452454 0.1853235 -0.5418594
000080 a9 c3 08 bf e5 8e b4 be 23 99 91 3b 48 32 5c bd
       -0.53423554 -0.3526527 0.004443304 -0.05375889
000090 1a a5 64 be ca 66 b3 bf 7f 5a 0b 3d 74 2b 95 3e
       -0.22328606 -1.4015744 0.03402185 0.29134715
0000a0 32 91 04 3f b6 a8 0b be f2 48 0a bb d5 c7 bd 3d
       0.5178405 -0.13638577 -0.0021100608 0.092666306
0000b0 de 7d 67 be 3d 07 72 3e e5 09 e2 3e bc 39 5a be
       -0.22606608 0.23635574 0.44148174 -0.21311086
0000c0 63 00 00 bf 21 ca 1f 3e 6c d7 ad 3e 2b 41 88 3e
       -0.5000059 0.1560445 0.33953416 0.2661222
0000d0 8c ef 1b bd 9b 3e 4b 3d ae 82 0d bf 0e 29 16 bc
       -0.038070247 0.049620252 -0.55277526 -0.009165062
0000e0 f1 f4 10 3f 49 34 37 bd b0 15 7b be a1 42 76 be
       0.5662375 -0.044727597 -0.24519992 -0.24048854
0000f0 a1 da ac be ae 1d af bc 08 7c 69 3f 7d 00 6c 3d
       -0.3376055 -0.021376457 0.9120488 0.057617653
000100 f3 a9 d1 3e a9 65 f1 3e 93 c9 7d 3d bc fc 99 3d
       0.40949973 0.47147873 0.061959814 0.075189084
000110 be c0 8d 3e e9 ee f1 3d b6 d8 09 3e 82 c0 79 be
       0.27686113 0.118131466 0.13461575 -0.24389842
000120 b8 7f d8 3e f6 3d 3d be ee 47 70 3c 7e 64 21 3e
       0.42284942 -0.18480667 0.014665587 0.15760991
000130 b5 68 45 3e e8 cc 4d 3e 9c 87 18 3e b3 0c 08 3d
       0.19278224 0.20097697 0.14895481 0.033215236
000140 e6 c5 72 3e 45 ed 37 3e 88 d9 40 3f af ee e8 3e
       0.23708305 0.17961605 0.75331926 0.454946
000150 c1 40 c3 bf 87 6f 97 bd 0c c0 ca be f6 32 02 3e
       -1.5254136 -0.07394319 -0.39599645 0.12714753
000160 67 b3 2e bf 45 e5 fd 3c 78 f1 50 be 66 5d 92 3e
       -0.68242496 0.030993113 -0.20404613 0.28586882
000170 ba a6 e1 be df eb 6f be 53 9f 09 be 57 c2 c6 be
       -0.44072515 -0.23429821 -0.13439684 -0.38820145
000180 15 7d a5 3c 30 b7 d6 be b8 98 f9 3d b4 68 6e be
       0.020201245 -0.41936636 0.12187332 -0.23282129
000190 32 8c c6 3d 17 01 60 be e7 32 09 3f 7e e7 81 3d
       0.09694709 -0.21875416 0.53593296 0.06342982
0001a0 6f 55 13 3e 2d 55 ab bc 79 e1 49 bf f9 fa 2c 3e
       0.14388059 -0.020914638 -0.7885967 0.16892613
0001b0 1d 3a 4c 3d 35 ce ad be e5 c4 93 bc d3 31 02 3c
       0.04986011 -0.33946386 -0.018038223 0.007946449
0001c0 7c 7c 95 be 60 62 6d 3d b7 48 33 3f 05 63 85 be
       -0.29196537 0.057955146 0.7003283 -0.26052108
0001d0 02 08 1d bf 5b d6 4a 3f 10 e8 c2 3c 8b 2b 9b 3e
       -0.61340344 0.7923333 0.023792297 0.30306658
0001e0 42 19 22 3f bf 91 72 be a5 05 f8 bc 79 ff 19 3f
       0.6331979 -0.2368841 -0.030276129 0.60155445
0001f0 73 3a 0d bf 13 d3 1c 3e 6d 89 55 3e 81 cc 44 3f
       -0.5516731 0.15314893 0.20853205 0.7687455
000200 1c 2b 52 3f d8 5f e0 3e 2e d2 d6 bd 39 5e 6f be
       0.8209703 0.43823123 -0.10489307 -0.23375787
000210 84 6d c4 bd 09 02 d2 3e d7 80 a8 3e 9b 57 a4 be
       -0.09591201 0.41017178 0.32910797 -0.32098088
000220 90 2c 77 3e 02 0e 89 3d 23 86 43 bf 7a 92 47 3e
       0.24138093 0.06692125 -0.7637655 0.1948947
000230 98 99 ee be 3d 0f f1 3e bd 6d 63 3f 42 ac 23 be
       -0.46601558 0.47081938 0.8883932 -0.1598368
000240 11 85 b1 3e 48 bb 3b be ad 10 06 3e c4 ff bd 3c
       0.34671834 -0.18333161 0.13092299 0.023193248
000250 39 8a 8e be d7 61 a5 be 34 1f d0 bd 53 2e 83 3e
       -0.2783983 -0.32301208 -0.101622015 0.2562128
000260 0d 1c 74 3e 10 ca 14 3e 05 7f 8d be 5b 08 f2 bd
       0.23838826 0.14530206 -0.2763597 -0.11818
000270 cc 8f 5b be de 89 b7 3d 92 dd 63 be 86 b1 8d 3e
       -0.21441573 0.08961843 -0.22252491 0.27674502
000280 33 eb 5a bf dd 04 08 bf 15 8e dd 3b e5 91 52 3e
       -0.85515136 -0.5313242 0.0067613223 0.20563467
000290 ce 02 0d bf 0c 9e 3a bf 58 0f f7 bb dd 66 c3 3e
       -0.55082405 -0.7289741 -0.007539671 0.38164416
0002a0 b5 72 07 3e e7 a1 2f bf d1 68 59 bd a9 f1 cc bc
       0.13227351 -0.6860642 -0.053078476 -0.025017576
0002b0 ba ab 56 be ed 72 a5 3e f5 1d fe 3e 31 60 99 be
       -0.20963946 0.32314244 0.4963223 -0.299562
0002c0 bf b0 2d 3f 06 d6 8e bd 2a 43 86 bb 26 74 c1 3e
       0.6784782 -0.069744155 -0.004097362 0.37783927
0002d0 a5 b9 51 bf 04 99 03 3f 3a 38 94 3e 1a 0c ae 3e
       -0.81923896 0.5140536 0.28949147 0.33993608
0002e0 ff 28 b3 3e 09 67 fb 3d 56 8a 28 3e 3a 92 18 bf
       0.34992215 0.12275512 0.16459021 -0.59598124
0002f0 35 12 43 bd 39 ec 0e be 15 ff 94 bd 76 87 95 3d
       -0.047624785 -0.139573 -0.072752155 0.07301228
000300 1f 29 43 3f d5 23 33 3f e2 ea 7d 3e a8 6e 26 3e
       0.7623462 0.6997655 0.24796632 0.1625315
000310 42 6d db be 3e df 60 be 30 8d 4e 3e bc b6 05 be
       -0.42856795 -0.2196016 0.20171046 -0.13057989
000320 70 9c 7e 3e ec 48 0d 3f f3 94 4a be 39 51 21 bc
       0.24864364 0.55189395 -0.19783382 -0.009846025
000330 07 2a 14 3f 95 82 8b 3e 59 15 f4 3d 1f 60 bc 3d
       0.5787663 0.27248064 0.11918134 0.09198021
000340 32 ac d3 be 8c 35 50 bd cf 94 12 be f6 81 a9 bd
       -0.41342312 -0.050832316 -0.14314578 -0.08276741
000350 d7 d8 12 bf ee f3 17 bf 6f 4b ef be d6 7a a9 ba
       -0.5736212 -0.5935658 -0.4673724 -0.0012930285
000360 ff d3 b8 bc 1f f8 e4 3e 21 af 3a 3f dc f5 44 3e
       -0.022562025 0.4472055 0.72923476 0.19234413
000370 17 a6 23 3e ea 5a ab be bc 65 54 bd c7 8c 00 bf
       0.15981327 -0.334678 -0.051854834 -0.5021481
000380 ac 50 8f be 02 60 6d 3f 03 b0 c2 3e f0 48 19 bf
       -0.27991235 0.9272462 0.3802491 -0.5987692
000390 5a 8a 16 bf b3 ed 66 3e 65 8d 15 3e f2 43 ef 3e
       -0.5880486 0.22551613 0.14604719 0.46731526
0003a0 07 08 ec 3e 87 90 4e be c2 b7 ea 3d da 48 96 3e
       0.46099874 -0.2017232 0.1146083 0.29352456
0003b0 aa 54 49 be 8c 2b 41 3e 55 1f 7b 3f fa ae d5 3c
       -0.19661203 0.18864268 0.98094684 0.026084412
0003c0 5a 7b 5b be eb 9e 5a bc e1 53 f9 3e 01 5c c3 3d
       -0.21433774 -0.013343553 0.48696807 0.09539033
0003d0 21 7c b7 bf 4f 1a 68 3e 7d 1f 8c be b2 c0 93 bd
       -1.4334756 0.22666286 -0.27367774 -0.07214488
0003e0 d2 b5 a9 3e 26 ab 11 3e 4c cb d8 3d ef 51 f0 be
       0.3314653 0.14225444 0.10585651 -0.4693751
0003f0 94 75 90 be 38 a0 32 be d4 d1 8f be ec b6 df 3e
       -0.28214705 -0.17443931 -0.28089774 0.43694246

arith.constant2 f4 [29]
000000 a1 d4 aa bd 3e 20 60 be 3c 21 15 3d 86 03 14 bc
       -0.08341337 -0.218873 0.036408648 -0.009034043
000010 0e 17 a6 3d 66 30 52 be 0c fa 71 3e f6 b8 4a bc
       0.08109866 -0.20526275 0.23630542 -0.0123732
000020 59 43 a4 3d fd 68 2b 3e 0c ed 55 bc de d2 c8 be
       0.08020658 0.16739269 -0.013057005 -0.3922338
000030 15 fc be 3d c3 60 41 be 23 5a 81 bd c9 c2 27 be
       0.093254246 -0.18884568 -0.0631602 -0.16382898
000040 43 89 d1 bc 60 a0 ba 3d f5 42 f6 3d c5 85 73 bd
       -0.025578147 0.0911262 0.1202449 -0.059453744
000050 28 32 cf bb 41 cd a8 bd 11 79 4f bd 9c 52 56 3d
       -0.0063231178 -0.08242274 -0.050652567 0.052324876
000060 fc f2 22 be 48 9a d7 bd f7 0f 3b 3d a3 cc f7 3d
       -0.15913004 -0.10527474 0.045669522 0.12099578
000070 64 8d 20 3f
       0.62715745

sequential_1/dense_1_2/BiasAdd/ReadVariableOp f4 [64]
000000 96 2c 91 3d 0a d0 b3 3c e6 38 c1 3e a5 97 ca bc
       0.07088582 0.021949787 0.37738723 -0.024730513
000010 32 34 cf 3e 4f bc d7 3e d7 bc ad 3e 49 bc d9 3d
       0.4046951 0.42135856 0.33933136 0.10631616
000020 ab 13 0b be b4 47 66 be 73 d4 80 3d ca d4 98 3e
       -0.13581721 -0.2248829 0.062905215 0.29849845
000030 dc 0c aa 3d d3 d7 1c 3e ac d4 41 3d fa e9 47 3e
       0.08303234 0.15316705 0.04732196 0.19522849
000040 e6 40 1e 3e 76 cd 3f 3d ce 1d ab 3d 6d 6f e7 3d
       0.15454444 0.046826802 0.08355294 0.1130055
000050 09 f4 81 3e 5c 27 5f 3e 9e b8 1c 3e 3a 63 65 3e
       0.25381497 0.21792358 0.15304801 0.22401133
000060 16 1d 06 be ac a5 e0 3e 51 44 9c 3d a5 75 2e 3e
       -0.13097033 0.43876398 0.07630218 0.17037065
000070 02 7e 91 3e 79 9d 17 bd 1d 63 70 3d b6 8f 6f 3e
       0.2841645 -0.037015412 0.05868827 0.23394665
000080 96 14 88 3d c5 2a 91 3e 64 78 cc 3e 56 4b c5 3e
       0.066445515 0.28352943 0.399356 0.3853404
000090 10 c9 17 3e b0 ff 6d 3d c7 0a 43 bd 31 43 8e 3e
       0.14822793 0.05810517 -0.0476177 0.27785638
0000a0 85 45 50 3e b5 da c9 3c 67 a4 10 3e 54 1a 80 3e
       0.2033902 0.02464042 0.14125215 0.25020087
0000b0 2f 57 c7 3e 9c ac 81 3e ca 78 6a bd 61 fb f2 3e
       0.38933703 0.25327003 -0.0572441 0.47457412
0000c0 68 9b ab 3d 25 ce 81 3d e9 11 78 3e 3c 72 af 3e
       0.08379251 0.06338147 0.24225582 0.3426684
0000d0 ab 0a 05 3e bb fe 89 3e b7 ef 85 bd 0a fd be 3e
       0.12992351 0.26952156 -0.065398626 0.37302428
0000e0 3f ae 53 3e d7 ba ec 3e ac af 82 3e ef b5 40 be
       0.20671938 0.46236297 0.25524652 -0.18819402
0000f0 b2 9e 69 bd 48 68 63 3e 94 0d ac 3d 55 b2 9f 3e
       -0.05703611 0.22207749 0.08401027 0.31190744

sequential_1/dense_1/BiasAdd/ReadVariableOp f4 [128]
000000 b5 28 c6 bd a6 eb da bd f1 8d d0 bc 6d 51 8f 3c
       -0.09675733 -0.106894776 -0.025458308 0.017494882
000010 c9 d8 b1 3d ae 00 10 3e f8 63 2c be c3 5b 43 be
       0.086839266 0.1406276 -0.1683501 -0.19077973
000020 06 47 6f bb 78 31 07 3d 61 7f db 3e 86 3e e2 3c
       -0.003651084 0.03300616 0.4287062 0.027617704
000030 07 43 f3 bd fd 91 87 3d 06 5f d5 3b 4d 36 ce 3d
       -0.11878019 0.06619642 0.006511572 0.10068951
000040 11 68 93 3c 64 bd bd 3b 6e 47 1e 3e eb 00 ab 3c
       0.017993959 0.0057903994 0.15456936 0.020874461
000050 ff 9a df 3a eb 5a 5f 3d 10 07 f2 3c b3 f3 cf bd
       0.0017059742 0.054530066 0.029544383 -0.10153904
000060 87 65 e6 3d 4f 7d 97 3d fc d9 9c 3e 6b de ca bd
       0.112498336 0.073969476 0.3063506 -0.09905704
000070 ed 11 92 3d 24 76 e1 bd f9 ef ea bc f0 aa 13 3e
       0.07132325 -0.11008862 -0.028678881 0.14420676
000080 9a e2 96 3d 0a ab 0e 3e e7 9f ab 3d 60 54 52 3e
       0.073674396 0.13932434 0.08380108 0.20539999
000090 8c 54 e7 bd 6e 9a e3 3d 5e ef 8b 3c 8f 11 40 3d
       -0.11295423 0.111134395 0.017081913 0.046891745
0000a0 bc 0f 24 3d 69 8e cc 3e 09 8b 61 3e 8a 7f 0b 3e
       0.040054068 0.399524 0.22025694 0.13622871
0000b0 7d 1e 91 3c bd 19 84 3e 7b 4b 94 3d 94 c6 b0 be
       0.017714733 0.25800887 0.07240959 -0.34526503
0000c0 55 fb 2a 3d 4e c6 ce bd ca 66 f4 3c fd 76 5d 3d
       0.041743595 -0.10096417 0.02983417 0.054068554
0000d0 50 98 99 3c c3 d2 9d 3d 19 5d e0 bc 39 8f d3 3d
       0.018749386 0.07706215 -0.027388142 0.10330052
0000e0 d3 e3 01 3e 96 27 d2 3d 33 18 d0 bc 43 29 d6 bc
       0.12684564 0.10261457 -0.025402164 -0.026142722
0000f0 e7 f0 65 3e cd 4f 81 bd 14 25 fa 3d ee d0 78 3d
       0.22455178 -0.06314049 0.12214103 0.060746126
000100 12 f5 8c bc ef 48 d0 bd 2a a3 c1 bd a8 45 15 3d
       -0.017206702 -0.10170161 -0.09454949 0.036443383
000110 41 1b 5a bb 86 0f b8 3e 7f 5e fb 3d 52 78 c8 3c
       -0.0033280405 0.35949343 0.12273883 0.024471436
000120 97 49 9e 3e 1c 90 8e 3e 30 15 0e 3d 64 af 25 3c
       0.3091552 0.27844322 0.034688175 0.010112617
000130 40 04 b7 3d 29 13 8f bc e1 f3 55 bd bc 40 ab 3e
       0.089363575 -0.017465191 -0.052234534 0.33447826
000140 b4 b4 eb 3e 23 d0 85 bb b0 8d 79 3b 94 5d e4 3d
       0.46036303 -0.0040836497 0.0038078837 0.11150661
000150 21 af 87 3c e6 ff 45 3d 45 d2 80 bc 79 0e 92 3e
       0.016563 0.048339747 -0.015725264 0.28526667
000160 38 c5 b7 3d 3f d0 e9 3c be 4e ba 3d f7 e8 9a 3b
       0.08973163 0.028541682 0.0909705 0.0047274786
000170 c2 06 38 3b cf 10 f2 3c 31 61 3d 3d 0b 8e cc 3d
       0.00280802 0.02954903 0.046235267 0.0998803
000180 50 ae 2f 3d 00 4b 09 3e 47 64 09 bd e6 d8 0f 3e
       0.042890847 0.13407516 -0.033542898 0.14047584
000190 f0 7a f7 3c cb ee 45 3e cc 80 f0 3d c8 bf a1 bd
       0.030209988 0.19329374 0.11743316 -0.078979075
0001a0 e6 7a ea bc 07 e8 df 3d c0 34 28 bd 85 f2 2b 3e
       -0.028623056 0.109329276 -0.04106593 0.16791733
0001b0 20 20 76 3d 70 b9 30 3d f8 a9 28 bd 07 5c 0b 3e
       0.06008923 0.043145597 -0.04117772 0.13609324
0001c0 9b 79 ad 3d 6b cd 8d bc b6 f1 bc bc 38 6f 81 3d
       0.0847046 -0.017309865 -0.023064476 0.063200414
0001d0 04 a0 c8 bd 8b 1b 1e bc 54 ba 1b 3d 53 03 0a 3d
       -0.097961456 -0.009650121 0.038019493 0.033694576
0001e0 00 b8 b9 bb eb d5 ca 3d bc e5 15 3d a2 ed cd 3d
       -0.0056676865 0.09904083 0.036596045 0.100550905
0001f0 e9 17 c0 bd 49 96 83 bd 1b f7 30 3e 76 b4 a7 3d
       -0.093795605 -0.06425149 0.17281763 0.08188717

sequential_1/dense_1/MatMul f4 [128, 63]
000000 e8 b1 b6 3d c7 36 c3 bd e2 2d b2 bc b5 d3 d3 3d
       0.08920652 -0.09531932 -0.021750394 0.10343114
000010 ce 38 34 be be 70 64 3e eb 1a e2 bd 0d ca 0e 3e
       -0.17599794 0.22308633 -0.110402904 0.13944264
000020 06 7d 85 bd 8a 9b 90 bb 9b 1b de 3e f8 5f 95 3e
       -0.06517987 -0.004413073 0.43380436 0.2917478
000030 40 b3 c8 3e 9f 1a 61 3f 44 8d c7 3d a6 e0 aa be
       0.39199257 0.87931246 0.09743741 -0.33374518
000040 6d 3b 59 3d e0 12 e1 bd de 65 4a bd 9a ae 51 be
       0.05303519 -0.10989928 -0.049413554 -0.20476761
000050 71 9c 29 3e eb b6 d1 3e d1 62 8d be 42 fc d7 3e
       0.16563584 0.40959868 -0.27614453 0.42184645
000060 dc f0 0d 3f 47 5b 5c bf b4 91 8f 3e 4b 68 4c bd
       0.5544565 -0.8607678 0.2804085 -0.04990415
000070 b9 62 d0 bd 85 46 0d bf 45 75 cc be 47 77 ff bc
       -0.1017508 -0.5518573 -0.3993322 -0.031184806
000080 e0 39 06 3d 6e da 27 be 66 95 d4 3d e1 cc 7c bc
       0.032770038 -0.16391918 0.10380058 -0.015429706
000090 80 8e f4 be 2d 0b 73 3e 59 2c 2d be 50 2d 1e 3e
       -0.4776497 0.23734732 -0.16911449 0.15446973
0000a0 87 64 e4 bd fc f5 a6 be a7 f8 c0 3d 84 00 26 3e
       -0.111519866 -0.32609546 0.09422427 0.16211134
0000b0 20 cf 0f 3e c5 5e 86 be b8 07 04 bd 4e 10 b0 3e
       0.14043856 -0.26244178 -0.032233924 0.3438744
0000c0 73 e1 de be 12 d3 f4 be 48 9e 40 be 3a 20 c2 3e
       -0.4353138 -0.47817284 -0.1881038 0.37915212
0000d0 19 90 8b bd 54 37 9b be 6a a2 06 3d e0 48 f5 bd
       -0.06814594 -0.3031565 0.032869734 -0.119767904
0000e0 eb 4c 07 bd 49 94 04 be 60 a9 27 be b5 58 3d 3e
       -0.03303234 -0.12947191 -0.16373205 0.1849087
0000f0 4f 32 02 3d 23 be c3 3d 74 b3 2f 3e 74 76 a0 3d
       0.03178626 0.0955775 0.171583 0.07835093
000100 0c 57 1f 3e f6 76 a4 bd 83 24 4d 3e c3 60 58 3e
       0.1556055 -0.080305025 0.2003346 0.21130662
000110 88 98 80 be e4 ac 59 3e fd 9e 2f 3e c3 bd 05 be
       -0.25116372 0.21257359 0.17150493 -0.1306067
000120 60 f4 e0 be 6d 62 dc bd ef 82 41 be b4 25 5f bf
       -0.43936443 -0.10760961 -0.18897603 -0.87166905
000130 7f 61 68 3d df 4e fc 3d c7 af c2 3b f9 61 d9 3d
       0.056733605 0.12319731 0.0059413644 0.1061439
000140 32 c2 c9 3c 22 b8 3a 3c 2c 2a ef 3b b3 b1 f3 bb
       0.024628732 0.01139644 0.0072987285 -0.007436955
000150 64 23 41 3e 71 ba 91 be 1e be 5a 3d 9f 5c 4b 3e
       0.18861157 -0.28462556 0.053403966 0.19859551
000160 dc 97 b9 bc 41 97 fe 3d 2a 7b 83 bd f5 82 f9 bd
       -0.02265542 0.12431193 -0.06419976 -0.12183181
000170 48 48 af 3e 33 88 d3 bc 97 37 3d bd f6 e8 f3 3d
       0.34234834 -0.02582178 -0.046195593 0.11909668
000180 59 99 80 3e 58 28 b1 3d e5 e9 44 3e 51 ad 09 3d
       0.25116995 0.08650273 0.19229849 0.033612553
000190 94 10 ac bc bc 35 6d 3e 46 11 d5 bc 89 22 68 bd
       -0.021003999 0.2316503 -0.026009213 -0.05667356
0001a0 31 86 29 3e 14 ae 2e bd ee d9 c2 be 00 9b 68 be
       0.16555096 -0.042646483 -0.38056892 -0.22715378
0001b0 ba c2 8a 3e 95 36 0b 3d f5 0b f7 bd 56 79 a1 be
       0.2710169 0.0339876 -0.120628275 -0.31537884
0001c0 a5 f9 ad bd 2f b2 ad 3e d1 c2 ec be cb bf 4c be
       -0.084948815 0.33925006 -0.46242383 -0.19995038
0001d0 9d 40 bc 3e ad 43 53 be 69 36 c8 be c6 95 cd bd
       0.36768046 -0.20631285 -0.39104012 -0.10038333
0001e0 eb 5e 68 3d 43 b2 53 be 87 ff ac 3e 67 1f 69 be
       0.056731146 -0.2067347 0.33788702 -0.22765885
0001f0 e5 62 be bd 25 99 db 3e 98 01 8c bd c0 8c df bc
       -0.092962064 0.42890278 -0.068362415 -0.027288795
000200 72 61 a2 be 6f 9f 29 3e 40 7e 7d 3e f8 8e bd bd
       -0.3171497 0.16564725 0.24755192 -0.09255785
000210 b9 18 b4 3e 4c 52 9e 3e de 8c 7b bd 0b 87 40 be
       0.35175112 0.30922163 -0.06141364 -0.18801515
000220 57 15 47 3e e9 34 07 3e 14 32 91 be 76 21 2a 3e
       0.19441734 0.13203777 -0.2835852 0.16614327
000230 56 d1 52 3e fb 0d a6 3e 2e ea 62 bd d6 4f e5 bd
       0.20587668 0.3243254 -0.055399112 -0.11196868
000240 36 9c 1e 3e ed 17 9d 3d a2 c4 42 3d 98 7e 4e be
       0.15489277 0.07670579 0.047550805 -0.20165479
000250 68 48 9a be 0f 7b 9f 3e 96 88 ce be 6d da 31 bf
       -0.30133367 0.31148574 -0.40338582 -0.69473916
000260 8d 80 5b 3e 82 67 5f 3e 43 01 98 3d 41 4d 1e 3d
       0.21435757 0.21816829 0.07422116 0.038647894
000270 b5 dc b4 3e ce 60 bd bd b0 5b 17 be 83 bf 8d 3e
       0.35324636 -0.0924698 -0.1478107 0.27685174
000280 c7 6e dd 3e bd 26 0b be 19 29 16 3e f0 ea 10 3f
       0.4324858 -0.13588996 0.14664115 0.56608486
000290 57 57 52 3e d6 77 d0 3c 2e af 12 3e 0b c6 31 3e
       0.2054113 0.025447767 0.14324638 0.17360704
0002a0 1e 7d ca 3d a4 ff f2 bd 32 a7 80 3d 8d 46 1e be
       0.098871455 -0.11865166 0.0628189 -0.154566
0002b0 67 a7 b7 3c ff 0c 4c be 20 59 a3 be ac cf 89 3e
       0.02241869 -0.19926833 -0.31903934 0.26916254
0002c0 29 11 42 bd 32 32 11 3e aa bc 7e bd 50 d0 73 3e
       -0.047379646 0.14179304 -0.062191643 0.23809934
0002d0 3d 13 b6 bc d7 af 8a be 32 00 81 3c b5 2c 23 be
       -0.02222597 -0.2708728 0.015747163 -0.15935023
0002e0 6c af bd be 94 2e a2 bd 8e c9 5d be 58 e2 1c bf
       -0.370479 -0.0791904 -0.21658918 -0.61282873
0002f0 37 f0 6f be 50 a2 2a 3c 64 16 a4 3d 8d 91 ce 3d
       -0.23431478 0.010414675 0.08012083 0.10086355
000300 0f a0 80 be 5e f8 f4 be 2f a5 3a 3e 3c 24 35 bd
       -0.25122115 -0.4784574 0.18227075 -0.04422401
000310 6a e3 12 be 98 d0 72 3e f0 1a 30 3d 92 9e 5a 3d
       -0.14344564 0.23712385 0.04299444 0.05337388
000320 da d9 52 3e 07 83 c0 3e 54 f6 68 3e 99 5d 9f 3e
       0.20590916 0.37599966 0.22750217 0.31126097
000330 2e c6 0e 3e 0a 28 cc bd ff 77 e5 3e ac d7 48 be
       0.13942787 -0.09968574 0.44818112 -0.19613522
000340 9e 28 3d 3e 79 09 fb 3d 08 e0 cb bd 4f 22 40 3e
       0.18472525 0.12257666 -0.0995484 0.18763088
000350 2d 2b 08 be ff e0 9b be 43 36 73 3e f7 09 f6 3c
       -0.1329772 -0.30445096 0.23751168 0.030034048
000360 11 b3 30 3e 2f 21 38 bb 6d fe 09 3e 58 d4 20 3e
       0.17255808 -0.002809595 0.13475962 0.15706003
000370 d2 d4 10 3e a1 27 64 3e 87 40 4e 3e f9 be 19 3e
       0.14143685 0.22280742 0.20141803 0.15014257
000380 63 92 01 bd 99 65 56 3e e3 4f df 3d eb f1 15 3e
       -0.031633746 0.20937194 0.10903909 0.14643066
000390 66 3d 42 3d 33 2f 5a 3e 98 e8 e4 3d f0 70 23 be
       0.047421835 0.21307068 0.11177176 -0.15961051
0003a0 96 b8 18 be ea 97 50 3e c9 8e 05 bf 7f aa c5 be
       -0.14914164 0.2037045 -0.52171 -0.3860664
0003b0 02 ac 42 3e 19 ee f0 bd 0e 02 0f bf 55 25 17 3e
       0.19010928 -0.117641635 -0.5586251 0.14760335
0003c0 7a 77 54 3e 59 fe 88 3e b3 bc 01 be d4 eb fe be
       0.20748702 0.26756552 -0.1266964 -0.49789298
0003d0 c9 f0 3d bd d6 4a d3 3d 18 32 fb be f1 60 00 bf
       -0.04637221 0.10317008 -0.49061656 -0.5014792
0003e0 dd 2c 92 bd 54 cc f4 be 24 83 57 bf 97 8b 34 be
       -0.07137463 -0.4781214 -0.8418448 -0.17631374
0003f0 28 38 2b 3e d6 48 0a be 42 96 61 3e 94 f4 85 be
       0.1672064 -0.13504347 0.22029975 -0.2616316
