assets/models/hand_sign_classifier_words.tflite (tflite, 68504 bytes, 8 tensors)

arith.constant f4 [256]
000000 0e fd b4 bd 76 7a be ba 89 f6 ad ba 2f ff c9 bc
       -0.08837329 -0.0014532346 -0.0013272326 -0.024657814
000010 04 7f c4 bb 17 0a 98 bd ed d8 97 ba 30 de c6 ba
       -0.0059965868 -0.074237995 -0.0011585035 -0.0015172418
000020 00 00 00 00 46 91 55 ba c9 55 11 be 17 a9 c1 be
       0.0 -0.00081469526 -0.1419288 -0.37824318
000030 64 5f fb bb 5c 62 11 ba 6e 6b c9 be 00 00 00 00
       -0.0076712836 -0.0005545968 -0.39339775 0.0
000040 11 8a 70 be 00 00 00 00 56 26 db bc 80 d0 0b ba
       -0.23490168 0.0 -0.026751678 -0.0005333498
000050 db a6 f4 ba 78 0e ae b9 fd 1d 60 3c 28 af ab ba
       -0.001866545 -0.00033198646 0.013679025 -0.0013098465
000060 3b 54 a4 bb ce cf ea bc 19 36 59 bd 6e d8 8e be
       -0.005014924 -0.028663542 -0.053030107 -0.27899498
000070 97 7e 37 be 24 8f c8 be b3 72 2e 3c 17 c4 e8 3b
       -0.17919384 -0.39171708 0.010647464 0.007103454
000080 cd 00 90 ba c1 a4 b9 ba 00 00 00 00 4d a4 3a be
       -0.0010986567 -0.001416348 0.0 -0.18226738
000090 54 a9 cc 3c c8 a9 75 3c d6 45 cb bd 5a 17 56 be
       0.024983086 0.014994092 -0.099254295 -0.20907345
0000a0 00 00 00 00 1c bc 0b be f5 c6 7a 3c 99 1a b6 bd
       0.0 -0.13645977 0.015306224 -0.08891792
0000b0 b5 a5 8e ba 3d 38 31 bb 00 00 00 00 00 00 00 00
       -0.0010883125 -0.0027041577 0.0 0.0
0000c0 3d 7f 46 ba 5c dd a8 3d 4c bc 02 bf e4 a8 dd bc
       -0.00075720606 0.08245346 -0.5106857 -0.027058072
0000d0 00 00 00 00 00 00 00 00 79 7d e4 b9 c2 43 62 bc
       0.0 0.0 -0.00043581033 -0.0138101
0000e0 06 86 32 be 9c d2 03 be 9e d9 6d be 00 00 00 00
       -0.17433938 -0.1287331 -0.23227546 0.0
0000f0 cc 8e 5e 3b 42 d3 46 bb 36 e1 65 be 21 0d b9 ba
       0.0033959625 -0.0030338322 -0.22449192 -0.0014118293
000100 3d 30 15 3e 95 10 ba bd 46 2f 22 bb 5f 6c d1 bb
       0.14569183 -0.09085194 -0.0024747415 -0.0063910927
000110 d6 df ef bd 48 95 04 bf 24 0a 77 bb ba cf 5e bd
       -0.11712615 -0.51790285 -0.0037695253 -0.054397322
000120 00 00 00 00 00 00 00 00 87 d3 81 ba c5 1d af be
       0.0 0.0 -0.0009904959 -0.342024
000130 50 94 3d bc c7 61 47 be 00 00 00 00 26 31 13 bf
       -0.011571005 -0.19470893 0.0 -0.5749687
000140 a8 5a 61 be 82 fe f3 bd ff de 19 bc 51 b6 9f bc
       -0.22007239 -0.11913778 -0.009391545 -0.019496115
000150 8e e5 09 3d 26 58 11 bf 00 00 00 00 89 83 9c 39
       0.033666186 -0.5677513 0.0 0.0002985264
000160 02 f7 90 bd 60 fb 9a bc fc 2e d4 bb 5b 14 f6 bb
       -0.07078363 -0.018918693 -0.0064753275 -0.007509751
000170 33 b4 0a bc f5 da 04 be 8a 64 b0 bd e7 9e dd bb
       -0.008465814 -0.1297415 -0.08612926 -0.0067633274
000180 cd 0b 02 bf af e0 d1 bb 20 a3 ac bb 20 ba f7 be
       -0.50799257 -0.006404958 -0.0052684695 -0.4838419
000190 f4 fa c9 3b 50 6f 67 be da 76 ad ba 78 f3 7d be
       0.006163949 -0.22601056 -0.0013234273 -0.24799907
0001a0 59 65 ce bd 9c 85 49 be f9 5b 0d ba ba ed 0b 3d
       -0.10077924 -0.19679874 -0.0005392428 0.03416226
0001b0 3a db d4 bb 04 8e a8 3c 00 00 00 00 00 00 00 00
       -0.0064958604 0.02057553 0.0 0.0
0001c0 f1 75 b6 3d e9 fa 7a 3d d7 d8 14 bd 32 82 2a bd
       0.08909214 0.061274443 -0.036339607 -0.04162807
0001d0 75 22 0f bc 00 00 00 00 19 6f 0f bb 2e b7 2c ba
       -0.008736243 0.0 -0.0021886288 -0.0006588575
0001e0 71 4b 7a ba 00 00 00 00 00 00 00 00 1e 48 d9 bc
       -0.0009547985 0.0 0.0 -0.026523646
0001f0 e9 8f 17 3b ea 34 ba be 9d 53 dd be 00 00 00 00
       0.0023126549 -0.36368495 -0.43227854 0.0
000200 ce 1a ca be dc 42 93 3d 28 48 d6 b9 c8 b6 7e ba
       -0.39473575 0.07190487 -0.0004087102 -0.00097165676
000210 e3 04 85 bd 2a 2a 20 bb fe 47 4d bd 7b ce dd bc
       -0.06495073 -0.0024439194 -0.050117485 -0.027075997
000220 82 cf 6f ba 00 00 00 00 94 84 16 bd bd 95 12 bc
       -0.00091480475 0.0 -0.03674753 -0.008946833
000230 1b 21 cf bc 71 0f d4 ba 00 00 00 00 00 00 00 00
       -0.02528434 -0.0016178918 0.0 0.0
000240 00 00 00 00 5b ef 21 ba 4a 19 2f bd 96 b1 8f ba
       0.0 -0.00061773293 -0.042748727 -0.0010962959
000250 d0 2c ad be f3 33 19 bc 2b b7 64 bb 10 30 8a be
       -0.33823252 -0.009350765 -0.0034899216 -0.26989794
000260 91 2d ba b9 00 00 00 00 3a ff 04 bb 7d ba a1 3d
       -0.00035510634 0.0 -0.0020293728 0.07896898
000270 65 31 2e bb 74 17 83 3c 00 00 00 00 33 03 04 be
       -0.0026579734 0.016002394 0.0 -0.12891845
000280 e0 40 b0 bd 7e 8e 01 bf e8 8f 2c bc c1 ff 6d 3d
       -0.08606124 -0.5060805 -0.010532357 0.058105234
000290 00 00 00 00 04 19 ab bc a4 06 ca ba b9 cc cd bc
       0.0 -0.020885952 -0.0015413356 -0.025122033
0002a0 a8 08 ed be f9 20 b3 be 00 00 00 00 02 66 4f ba
       -0.46295667 -0.34986094 0.0 -0.00079116237
0002b0 86 36 77 bc c9 7e 7a 3b da ee 87 bb 00 00 00 00
       -0.015088683 0.0038222542 -0.0041483464 0.0
0002c0 62 d2 de ba 00 00 00 00 fb ec 9f bd e6 d2 2b 3d
       -0.0016999955 0.0 -0.07808872 0.041949175
0002d0 a0 f7 5f bb 00 00 00 00 82 db b8 bb 97 98 c6 ba
       -0.0034174696 0.0 -0.0056414017 -0.0015151676
0002e0 3d 5a b4 ba ab fc 87 ba f8 96 34 bd 7d 3c cf bb
       -0.0013759803 -0.0010374984 -0.044089288 -0.0063243494
0002f0 97 b6 8c bb c9 0b a6 ba 9f 6c 23 bf 82 a4 71 ba
       -0.0042942273 -0.0012668307 -0.6383762 -0.0009217934
000300 71 db fe be 0b b7 1a 3e 7f 3d 8c be 93 25 89 ba
       -0.49776796 0.15108888 -0.27390668 -0.0010463468
000310 99 da db 3a 00 00 00 00 ea b3 6a bb bc 3b b8 ba
       0.0016773521 0.0 -0.0035812804 -0.0014055888
000320 a0 4c 6a bb ec 8f a6 be 9e 37 4c be 09 0c 9f bc
       -0.0035751238 -0.3253168 -0.19943091 -0.019414918
000330 fa ae 87 bc a5 96 ec bb 03 86 d1 be db 74 68 3d
       -0.016562928 -0.0072201067 -0.40922555 0.056752067
000340 d3 1b 91 be b4 d3 f4 be 00 00 00 00 69 2a fb be
       -0.2834154 -0.47817767 0.0 -0.49055794
000350 59 85 b7 ba cb 1b 09 be a2 45 a3 3b 37 48 72 ba
       -0.0014001533 -0.13389508 0.004982666 -0.0009242328
000360 60 d0 2a 3e 30 6b 87 bb 74 a5 4c bb 76 fc 99 3a
       0.16681051 -0.004132651 -0.0031226547 0.0011748213
000370 00 00 00 00 6a f8 88 ba 0f 6d e8 bb 2d e6 09 3d
       0.0 -0.001045001 -0.007093079 0.03366678
000380 00 00 00 00 e3 42 3d ba b1 4b 8f be c9 4f 1b bd
       0.0 -0.0007219745 -0.27987435 -0.037917886
000390 82 be 2f 3a af c4 07 bb ec 25 a6 bb a3 bd 56 bc
       0.0006704108 -0.0020716598 -0.0050704386 -0.013106736
0003a0 c0 ac c0 ba 3c 27 08 bb 00 00 00 00 61 fe 6b bc
       -0.0014699921 -0.0020775339 0.0 -0.01440391
0003b0 00 00 00 00 0a 1c db bb f0 e2 0e bf b6 e1 b3 3d
       0.0 -0.006686692 -0.5581503 0.08783285
0003c0 00 00 00 00 00 00 00 00 aa 2a 00 bf 00 00 00 00
       0.0 0.0 -0.500651 0.0
0003d0 d1 a0 b8 3b ed d5 88 bc ab b6 b1 bc 00 00 00 00
       0.005634405 -0.01670357 -0.021693548 0.0
0003e0 47 eb 3d be fe 81 7b 3c 37 ea 80 bd df 23 85 bc
       -0.18546782 0.015350817 -0.06294673 -0.016252456
0003f0 c6 42 c2 ba bb 87 20 bf 1d 18 e4 bd 3b 49 e2 be
       -0.0014820925 -0.6270711 -0.11137412 -0.44196495

arith.constant1 f4 [128]
000000 ef 35 02 bc 24 ac 00 bf 1e 85 6b bd 13 cd a7 3c
       -0.007947429 -0.50262666 -0.057499997 0.02048353
000010 42 05 83 3d c2 11 50 be 50 3b 2f bd d9 0e b1 be
       0.06397487 -0.20319274 -0.042781174 -0.3458164
000020 1f 06 99 3c 2f 52 9e 3d 9d c1 5f 3c 38 cd c8 bc
       0.018679677 0.07730519 0.013657001 -0.024511918
000030 63 04 34 be 94 46 91 bc 54 b3 e8 3d 2f 36 90 bb
       -0.17579798 -0.01773385 0.11362329 -0.0044009904
000040 9f 64 c1 3c 8d 1c 2b be c7 c9 00 3c bd 82 ae bc
       0.02360755 -0.1671011 0.0078606075 -0.021302575
000050 e9 2f 57 bc 8d 3d a0 bc ea 23 9b 3d a3 5f c7 bc
       -0.013133981 -0.0195606 0.075752094 -0.024337595
000060 59 ba 8c bc 45 05 8b 3d de ee 7a be 19 da d9 be
       -0.017178701 0.067881145 -0.24505183 -0.42549208
000070 d2 e6 ac be ce c7 0f be 85 ea 66 bb f6 e9 2a 3d
       -0.33769852 -0.14041063 -0.0035235 0.04172703
000080 f0 de b8 3c f3 be d0 bc d8 b1 df bc c0 59 25 bf
       0.022567242 -0.025481677 -0.027306482 -0.6459007
000090 f2 b2 2a bd b2 e2 4c 3d d4 a7 83 bc a1 83 14 bc
       -0.04167456 0.05002088 -0.016071238 -0.009064586
0000a0 05 7e e9 bc 9b dd 8b be 5b 33 04 3d 9b 89 93 bc
       -0.028502474 -0.2731751 0.03227554 -0.018009951
0000b0 4d b8 2d 3d ca 1f 01 3d 86 f4 01 3d e6 3e 87 3b
       0.04241209 0.031524457 0.031727336 0.004127371
0000c0 2f 52 54 bc 69 be 7c 3d 45 09 bd bc 02 f8 12 3d
       -0.012959047 0.061705027 -0.02307571 0.03588105
0000d0 42 e6 bd bb 73 c9 70 3d 22 7a 4e be 47 49 18 bd
       -0.005795271 0.058785867 -0.20163777 -0.037179258
0000e0 e7 a7 3d bc 02 eb 89 3d a6 03 ce be df 80 ea bb
       -0.011575676 0.06734277 -0.4023716 -0.007156476
0000f0 70 1a d3 bd ef a9 38 be 26 42 64 3c 63 4e 33 bd
       -0.10307777 -0.18033575 0.013931787 -0.043775927
000100 ca 96 2e bc 5a 09 c2 bd 88 08 75 3d e2 0c 48 bd
       -0.010656068 -0.0947444 0.05982259 -0.04884041
000110 78 85 8e bc 27 db ab bc 04 29 95 bc 33 8b 6d 3c
       -0.017397627 -0.020978523 -0.018208034 0.01449852
000120 60 8f 8c bc c8 05 0e 3d c8 7f 7e bc df 07 5c bc
       -0.01715821 0.034673482 -0.015533395 -0.013429611
000130 00 b3 26 bd 09 c9 f9 bc 46 0a 51 b9 32 9a c3 3d
       -0.04069805 -0.030491369 -0.0001993562 0.09550895
000140 39 31 26 3e 87 60 45 3b 21 f9 97 3d 66 f7 72 bc
       0.16229714 0.003011735 0.074205644 -0.014829492
000150 4a 73 7a bc 65 76 87 3c 4e fe b9 3c bd 3e 92 be
       -0.015286276 0.016535947 0.02270427 -0.2856349
000160 e8 66 63 bc 2b d9 0e bd 2e 7d f8 bd 05 42 3c bc
       -0.013879515 -0.034875076 -0.12133251 -0.01149035
000170 87 d8 a6 bc 30 8f a0 3d 9b ad a4 bc bf 36 ba bc
       -0.02036692 0.07839811 -0.020102313 -0.022731183
000180 bc 91 69 bc e7 a0 ba bd 8a a6 e5 3c c0 1d 02 bd
       -0.014255937 -0.09112721 0.028033514 -0.031766653
000190 1e 7d 4a 3d e1 2d 8c be 48 de 69 bd 17 e2 80 bc
       0.049435727 -0.27378753 -0.05709675 -0.015732808
0001a0 36 85 86 bc 51 56 56 bc b2 dc da b9 6b d7 c8 bd
       -0.016420942 -0.013082103 -0.0004174463 -0.09806713
0001b0 b2 e0 85 3c 5c 47 a9 3a 8f 2a 4c bd f0 86 9e bd
       0.016342495 0.0012914944 -0.049845275 -0.07740581
0001c0 bf 00 7e bc 15 34 82 3c a2 a0 0f bd 88 b3 87 bc
       -0.015503108 0.015893975 -0.0350653 -0.0165651
0001d0 53 31 1f bd 41 ae bd bb b3 5a bf bc 44 7d d4 bb
       -0.0388654 -0.005788595 -0.023358678 -0.0064846594
0001e0 b8 97 13 3d c3 64 67 3d b3 a6 bd 3d ee 6e d7 be
       0.036033362 0.05649258 0.09260311 -0.4207682
0001f0 e2 98 93 bc fa 82 61 bb f4 1c 08 be 5c 88 dc 3c
       -0.018017236 -0.0034410344 -0.13292295 0.02692049

arith.constant2 f4 [64]
000000 a8 a2 9b 3d 83 1c 11 bd 6f 5b bb 3d 7a 51 f3 bd
       0.075993836 -0.03542758 0.09148299 -0.11880775
000010 66 4c f6 3d 2e 27 f9 3d 39 59 19 be d1 91 cb bd
       0.120262906 0.12165676 -0.14975442 -0.09939922
000020 10 20 11 be 0c 65 ec bc 2b 1e ba 3c 56 58 ba bc
       -0.14172387 -0.028856777 0.022719463 -0.0227472
000030 df 24 0d bd f6 19 cc bc 33 f8 8d bd b4 12 0c bd
       -0.03445899 -0.024914723 -0.06932106 -0.034197524
000040 7d d7 88 bd 71 30 b6 bc c7 d7 0e bd e6 fe f2 3b
       -0.06681726 -0.022239896 -0.03487375 0.00741564
000050 54 50 29 bd 87 68 c5 bc 22 f0 43 be c6 89 2e be
       -0.041336372 -0.024097694 -0.19134572 -0.17044744
000060 05 e7 17 bc 20 f7 12 be 04 85 d4 bc e3 f9 1a be
       -0.009271388 -0.14352083 -0.025942333 -0.15134387
000070 b5 09 9a be 09 7e 99 3d bc 46 22 be 2d cb e8 3c
       -0.3008553 0.074947424 -0.15847296 0.028417194
000080 de cb 61 bc 76 b8 a9 bd 0f 12 e4 bd 53 67 11 3c
       -0.013781516 -0.08287136 -0.11136257 0.008874732
000090 d0 f1 1f bd 5e f6 17 bc 5d 99 3c 3e 3c 40 31 be
       -0.03904897 -0.009275047 0.18417878 -0.1730966
0000a0 09 90 dc bc a3 01 8d 3d a9 20 8a bc 99 8d 9a 3d
       -0.02692415 0.06885078 -0.016861277 0.07546539
0000b0 c4 9e 5c bd 8e d3 5b bc b0 6b 83 bd 39 1c d6 bc
       -0.05386235 -0.013417138 -0.06417024 -0.026136504
0000c0 99 d4 9b bc c8 52 1e be 64 17 8d be b9 29 55 bd
       -0.019022273 -0.15461266 -0.27556908 -0.052041743
0000d0 27 f2 db bc 5b 26 63 3e aa b9 cb bd 97 14 83 3d
       -0.026848866 0.221826 -0.09947522 0.064004116
0000e0 55 55 f3 3c 46 b0 d0 3c ab c2 0b bd 9e 18 30 3e
       0.029703775 0.025474679 -0.034121197 0.1719689
0000f0 10 65 d7 3c 54 f0 a2 bc c2 23 24 3e 8e 72 a4 bd
       0.026293308 -0.019889988 0.16029266 -0.08029662

arith.constant3 f4 [20]
000000 5f 59 b3 3d 0f 3e 6e 3c d0 4c 41 3b 9b 6a 01 bd
       0.087572806 0.014541163 0.0029495247 -0.031595808
000010 d2 39 3e bd c4 eb b3 3b b6 65 97 bc b6 2b f2 bc
       -0.04644186 0.005490752 -0.018481117 -0.029561859
000020 a9 68 95 3b 60 dc b7 bd c0 86 3f 3c 9d a7 f9 bc
       0.0045595956 -0.0897758 0.011689842 -0.030475432
000030 6d 29 a1 bd ae 1f 74 3d 31 32 0c bd fe 26 89 bd
       -0.078692295 0.059600525 -0.034227554 -0.0669689
000040 ab 2c 35 bc 39 b2 2d 3e 57 19 aa bd 4c 67 4d bc
       -0.011058013 0.16962518 -0.083056144 -0.012536835

tfl.pseudo_qconst i1 [20, 64]
000000 23 08 3f f2 31 e5 ec 13 12 f9 f3 09 04 fa 1b 01
       35 8 63 -14 49 -27 -20 19 18 -7 -13 9 4 -6 27 1
000010 e6 ec f7 18 0f 10 fb ee d9 ca 34 0d fc f2 ed 07
       -26 -20 -9 24 15 16 -5 -18 -39 -54 52 13 -4 -14 -19 7
000020 22 fa d0 16 9f e7 0f 21 f8 b6 04 e2 d7 0d 10 e6
       34 -6 -48 22 -97 -25 15 33 -8 -74 4 -30 -41 13 16 -26
000030 11 33 ec cd 81 1f 04 f1 eb 1d 29 0a 19 f9 ff f2
       17 51 -20 -51 -127 31 4 -15 -21 29 41 10 25 -7 -1 -14
000040 11 ba 0f 12 f2 de 01 d2 e1 ff 35 02 29 f2 e5 16
       17 -70 15 18 -14 -34 1 -46 -31 -1 53 2 41 -14 -27 22
000050 22 21 ff 15 ec fb 0c f0 e5 f4 b7 da 16 e5 5a 31
       34 33 -1 21 -20 -5 12 -16 -27 -12 -73 -38 22 -27 90 49
000060 d6 13 07 f4 9e e0 b8 81 d7 fe c3 38 21 fd 9e da
       -42 19 7 -12 -98 -32 -72 -127 -41 -2 -61 56 33 -3 -98 -38
000070 f4 bd 03 0d bc 07 0a 1f d3 15 05 0c ff f7 41 20
       -12 -67 3 13 -68 7 10 31 -45 21 5 12 -1 -9 65 32
000080 d3 12 9e 15 cd df 2f a1 ed fc 14 1b be 02 06 06
       -45 18 -98 21 -51 -33 47 -95 -19 -4 20 27 -66 2 6 6
000090 d4 ed ea 02 f9 11 ef 14 0f b1 2b 09 11 27 1a 26
       -44 -19 -22 2 -7 17 -17 20 15 -79 43 9 17 39 26 38
0000a0 41 2b c8 f0 f0 0d 12 e9 df c9 e2 93 19 eb dc 97
       65 43 -56 -16 -16 13 18 -23 -33 -55 -30 -109 25 -21 -36 -105
0000b0 f0 81 2f 9c f6 15 37 24 fd d2 07 e9 f4 1a 23 fc
       -16 -127 47 -100 -10 21 55 36 -3 -46 7 -23 -12 26 35 -4
0000c0 ae f9 13 27 18 f3 f4 eb 0b f2 06 dc f4 f8 06 01
       -82 -7 19 39 24 -13 -12 -21 11 -14 6 -36 -12 -8 6 1
0000d0 d8 11 fc fe 06 f3 d1 cd 25 16 0c 14 cb 81 15 f3
       -40 17 -4 -2 6 -13 -47 -51 37 22 12 20 -53 -127 21 -13
0000e0 10 e0 fc 0c 15 f5 24 0d bc 1c 0a e4 01 05 0f 89
       16 -32 -4 12 21 -11 36 13 -68 28 10 -28 1 5 15 -119
0000f0 00 21 9f 02 09 9a 0e 36 fc 0d 0f 4a df f7 ed d6
       0 33 -97 2 9 -102 14 54 -4 13 15 74 -33 -9 -19 -42

tfl.pseudo_qconst1 i1 [64, 128]
000000 f5 ea da 84 2b 0b 0c 4d da f3 fb 00 2d e9 51 fa
       -11 -22 -38 -124 43 11 12 77 -38 -13 -5 0 45 -23 81 -6
000010 bb fb 25 db 0a f1 34 0b 0f f7 04 06 1b 05 ef c5
       -69 -5 37 -37 10 -15 52 11 15 -9 4 6 27 5 -17 -59
000020 03 15 d9 d6 f8 1f 19 b7 0a 21 14 17 27 7a 0d 44
       3 21 -39 -42 -8 31 25 -73 10 33 20 23 39 122 13 68
000030 b9 06 24 e6 ed 82 06 0e 06 0b 02 f2 0c c8 11 ec
       -71 6 36 -26 -19 -126 6 14 6 11 2 -14 12 -56 17 -20
000040 1f f8 06 eb 0e 11 fb ef f2 02 03 08 2c 05 f3 0e
       31 -8 6 -21 14 17 -5 -17 -14 2 3 8 44 5 -13 14
000050 f3 36 b4 fa 1c 21 17 ed ed 1b c7 0c 10 2e 05 05
       -13 54 -76 -6 28 33 23 -19 -19 27 -57 12 16 46 5 5
000060 11 33 e3 9f 0d 1c fc 13 37 0c 0d f4 84 2b fd f1
       17 51 -29 -97 13 28 -4 19 55 12 13 -12 -124 43 -3 -15
000070 22 40 01 1c c0 fa 17 f6 12 b6 d3 d3 fc f8 a6 7f
       34 64 1 28 -64 -6 23 -10 18 -74 -45 -45 -4 -8 -90 127
000080 03 05 01 01 f7 21 13 e0 f4 29 21 ee 0b 19 e6 fe
       3 5 1 1 -9 33 19 -32 -12 41 33 -18 11 25 -26 -2
000090 d2 29 d6 da fe 29 b0 ec 00 d4 11 d0 f4 16 fc ed
       -46 41 -42 -38 -2 41 -80 -20 0 -44 17 -48 -12 22 -4 -19
0000a0 13 1a f9 21 f6 e4 15 d4 fd 1f 23 30 2b 00 24 2e
       19 26 -7 33 -10 -28 21 -44 -3 31 35 48 43 0 36 46
0000b0 20 a6 f7 15 f6 29 fc 18 08 b4 1e fe 38 08 fa f5
       32 -90 -9 21 -10 41 -4 24 8 -76 30 -2 56 8 -6 -11
0000c0 d3 08 ce bb fb ef 03 23 f1 3e 01 10 2b ed fb 3c
       -45 8 -50 -69 -5 -17 3 35 -15 62 1 16 43 -19 -5 60
0000d0 bc 0a 08 06 0c 1d 2e 17 f3 fb 11 14 09 3c ec f2
       -68 10 8 6 12 29 46 23 -13 -5 17 20 9 60 -20 -14
0000e0 04 fd 0e cd 34 23 03 15 b5 eb 0d f9 f2 06 19 f1
       4 -3 14 -51 52 35 3 21 -75 -21 13 -7 -14 6 25 -15
0000f0 f6 b5 18 01 07 16 1b 15 df 93 2d 27 01 ea 7f 1d
       -10 -75 24 1 7 22 27 21 -33 -109 45 39 1 -22 127 29

tfl.pseudo_qconst2 i1 [128, 256]
000000 56 d8 5c fd 05 9f ea e9 fc 06 d9 07 3c ac f1 a9
       86 -40 92 -3 5 -97 -22 -23 -4 6 -39 7 60 -84 -15 -87
000010 22 f9 35 50 51 ac de b6 1c f4 2a b9 e2 35 09 c8
       34 -7 53 80 81 -84 -34 -74 28 -12 42 -71 -30 53 9 -56
000020 c1 83 5e a2 03 94 00 87 90 89 ad c0 89 86 a5 23
       -63 -125 94 -94 3 -108 0 -121 -112 -119 -83 -64 -119 -122 -91 35
000030 26 28 2b 0a ab 65 f4 37 51 c2 bc c0 09 23 a1 39
       38 40 43 10 -85 101 -12 55 81 -62 -68 -64 9 35 -95 57
000040 eb 63 fb 34 da 0c b8 f7 a8 d6 66 a7 54 b2 6f ec
       -21 99 -5 52 -38 12 -72 -9 -88 -42 102 -89 84 -78 111 -20
000050 32 91 10 cd 6f eb 4a a8 b7 68 ca 8b a3 92 07 94
       50 -111 16 -51 111 -21 74 -88 -73 104 -54 -117 -93 -110 7 -108
000060 45 b4 97 db 0b 25 62 f9 f4 48 81 8f c4 99 38 9b
       69 -76 -105 -37 11 37 98 -7 -12 72 -127 -113 -60 -103 56 -101
000070 53 eb 57 1e 61 ac 53 94 0f 92 01 b4 f2 58 0e 0f
       83 -21 87 30 97 -84 83 -108 15 -110 1 -76 -14 88 14 15
000080 05 17 24 83 ee 15 5f 96 5d 8d 5b 13 e2 91 23 d2
       5 23 36 -125 -18 21 95 -106 93 -115 91 19 -30 -111 35 -46
000090 8f 26 90 52 aa d2 54 f4 8c 6b 65 df 57 06 9a 18
       -113 38 -112 82 -86 -46 84 -12 -116 107 101 -33 87 6 -102 24
0000a0 08 de 6d 27 da fa da 90 df 29 95 61 2a 5f fe ba
       8 -34 109 39 -38 -6 -38 -112 -33 41 -107 97 42 95 -2 -70
0000b0 a0 53 93 23 2e 5c 6e 8f 26 01 e7 e7 bf 09 88 39
       -96 83 -109 35 46 92 110 -113 38 1 -25 -25 -65 9 -120 57
0000c0 26 d7 ce af 5f d3 32 21 2b ad fe 8c fa be 92 c3
       38 -41 -50 -81 95 -45 50 33 43 -83 -2 -116 -6 -66 -110 -61
0000d0 2c 3c 05 b2 35 ce 18 c4 1f 20 fd 8d 94 e8 d2 e3
       44 60 5 -78 53 -50 24 -60 31 32 -3 -115 -108 -24 -46 -29
0000e0 05 dc 4b 1c fb 8b 2d 14 ae 08 8e 23 d2 d8 ab bb
       5 -36 75 28 -5 -117 45 20 -82 8 -114 35 -46 -40 -85 -69
0000f0 2e 6c 20 c6 b9 ed a4 d7 eb 88 f8 c0 d9 65 fe 59
       46 108 32 -58 -71 -19 -92 -41 -21 -120 -8 -64 -39 101 -2 89

sequential_4_1/dense_15_1/MatMul i1 [256, 63]
000000 de 12 05 e3 e8 f4 0c 06 08 16 28 1f 7f 44 04 d6
       -34 18 5 -29 -24 -12 12 6 8 22 40 31 127 68 4 -42
000010 08 d6 f4 ca ee f0 c7 e0 f7 ba ee 04 0e ff eb 04
       8 -42 -12 -54 -18 -16 -57 -32 -9 -70 -18 4 14 -1 -21 4
000020 00 e3 f7 21 f8 db 34 f1 f8 0b 12 e3 ff e4 1c f0
       0 -29 -9 33 -8 -37 52 -15 -8 11 18 -29 -1 -28 28 -16
000030 f6 12 ee 1f 11 29 25 fc 06 f6 32 ed 21 35 f2 15
       -10 18 -18 31 17 41 37 -4 6 -10 50 -19 33 53 -14 21
000040 24 1b 10 13 ca 1b 2d eb e8 0a d0 c2 32 e4 22 1a
       36 27 16 19 -54 27 45 -21 -24 10 -48 -62 50 -28 34 26
000050 7f 0a fe 3b e3 e3 01 d8 ef f2 22 02 6e 07 d8 21
       127 10 -2 59 -29 -29 1 -40 -17 -14 34 2 110 7 -40 33
000060 18 ed 02 32 d6 d3 e1 06 13 e7 06 c8 12 20 da f6
       24 -19 2 50 -42 -45 -31 6 19 -25 6 -56 18 32 -38 -10
000070 13 e5 b4 08 0c d8 01 ca ca 09 cf db 18 fb 33 08
       19 -27 -76 8 12 -40 1 -54 -54 9 -49 -37 24 -5 51 8
000080 f4 08 19 7f f0 17 41 1a 0e 03 19 07 ed b1 0c 03
       -12 8 25 127 -16 23 65 26 14 3 25 7 -19 -79 12 3
000090 05 0d 08 e4 06 0d fb ec 2b ce f7 c4 1d f0 f4 ff
       5 13 8 -28 6 13 -5 -20 43 -50 -9 -60 29 -16 -12 -1
0000a0 f4 fa f0 f3 06 18 0d e5 30 0e ff 12 07 19 fa de
       -12 -6 -16 -13 6 24 13 -27 48 14 -1 18 7 25 -6 -34
0000b0 18 5c f1 b7 65 ee e7 3b da 19 19 db 10 c9 eb 25
       24 92 -15 -73 101 -18 -25 59 -38 25 25 -37 16 -55 -21 37
0000c0 d0 e5 09 c4 07 2e c8 0c 45 e8 06 60 e6 f4 81 db
       -48 -27 9 -60 7 46 -56 12 69 -24 6 96 -26 -12 -127 -37
0000d0 17 1c 00 f6 31 0d d2 3a 11 0b c1 0b 08 fd 07 0a
       23 28 0 -10 49 13 -46 58 17 11 -63 11 8 -3 7 10
0000e0 0e ef ef 1b 2f 0e 19 25 07 19 17 0d e7 0a 1e e7
       14 -17 -17 27 47 14 25 37 7 25 23 13 -25 10 30 -25
0000f0 25 18 35 26 26 24 25 18 01 10 2b e7 06 1f 41 8b
       37 24 53 38 38 36 37 24 1 16 43 -25 6 31 65 -117
